==========================================================================================
Layer (type:depth-idx)                   Output Shape              Param #
==========================================================================================
MLP                                      [1, 2]                    --
├─Linear: 1-1                            [1, 128]                  1,920
├─BatchNorm1d: 1-2                       [1, 128]                  256
├─ReLU: 1-3                              [1, 128]                  --
├─Dropout: 1-4                           [1, 128]                  --
├─Linear: 1-5                            [1, 2]                    258
==========================================================================================
Total params: 2,434
Trainable params: 2,434
Non-trainable params: 0
Total mult-adds (Units.MEGABYTES): 0.00
==========================================================================================
Input size (MB): 0.00
Forward/backward pass size (MB): 0.00
Params size (MB): 0.01
Estimated Total Size (MB): 0.01
…
